Saved on: 2025-04-29 07:10

Model structure:
TransformerConcatHiddenState(
  (transformer): BeitModel(
    (embeddings): BeitEmbeddings(
      (patch_embeddings): BeitPatchEmbeddings(
        (projection): Conv2d(3, 768, kernel_size=(16, 16), stride=(16, 16))
      )
      (dropout): Dropout(p=0.0, inplace=False)
    )
    (encoder): BeitEncoder(
      (layer): ModuleList(
        (0): BeitLayer(
          (attention): BeitAttention(
            (attention): BeitSelfAttention(
              (query): Linear(in_features=768, out_features=768, bias=True)
              (key): Linear(in_features=768, out_features=768, bias=False)
              (value): Linear(in_features=768, out_features=768, bias=True)
              (dropout): Dropout(p=0.0, inplace=False)
              (relative_position_bias): BeitRelativePositionBias()
            )
            (output): BeitSelfOutput(
              (dense): Linear(in_features=768, out_features=768, bias=True)
              (dropout): Dropout(p=0.0, inplace=False)
            )
          )
          (intermediate): BeitIntermediate(
            (dense): Linear(in_features=768, out_features=3072, bias=True)
            (intermediate_act_fn): GELUActivation()
          )
          (output): BeitOutput(
            (dense): Linear(in_features=3072, out_features=768, bias=True)
            (dropout): Dropout(p=0.0, inplace=False)
          )
          (layernorm_before): LayerNorm((768,), eps=1e-12, elementwise_affine=True)
          (drop_path): Identity()
          (layernorm_after): LayerNorm((768,), eps=1e-12, elementwise_affine=True)
        )
        (1): BeitLayer(
          (attention): BeitAttention(
            (attention): BeitSelfAttention(
              (query): Linear(in_features=768, out_features=768, bias=True)
              (key): Linear(in_features=768, out_features=768, bias=False)
              (value): Linear(in_features=768, out_features=768, bias=True)
              (dropout): Dropout(p=0.0, inplace=False)
              (relative_position_bias): BeitRelativePositionBias()
            )
            (output): BeitSelfOutput(
              (dense): Linear(in_features=768, out_features=768, bias=True)
              (dropout): Dropout(p=0.0, inplace=False)
            )
          )
          (intermediate): BeitIntermediate(
            (dense): Linear(in_features=768, out_features=3072, bias=True)
            (intermediate_act_fn): GELUActivation()
          )
          (output): BeitOutput(
            (dense): Linear(in_features=3072, out_features=768, bias=True)
            (dropout): Dropout(p=0.0, inplace=False)
          )
          (layernorm_before): LayerNorm((768,), eps=1e-12, elementwise_affine=True)
          (drop_path): BeitDropPath(p=0.00909090880304575)
          (layernorm_after): LayerNorm((768,), eps=1e-12, elementwise_affine=True)
        )
        (2): BeitLayer(
          (attention): BeitAttention(
            (attention): BeitSelfAttention(
              (query): Linear(in_features=768, out_features=768, bias=True)
              (key): Linear(in_features=768, out_features=768, bias=False)
              (value): Linear(in_features=768, out_features=768, bias=True)
              (dropout): Dropout(p=0.0, inplace=False)
              (relative_position_bias): BeitRelativePositionBias()
            )
            (output): BeitSelfOutput(
              (dense): Linear(in_features=768, out_features=768, bias=True)
              (dropout): Dropout(p=0.0, inplace=False)
            )
          )
          (intermediate): BeitIntermediate(
            (dense): Linear(in_features=768, out_features=3072, bias=True)
            (intermediate_act_fn): GELUActivation()
          )
          (output): BeitOutput(
            (dense): Linear(in_features=3072, out_features=768, bias=True)
            (dropout): Dropout(p=0.0, inplace=False)
          )
          (layernorm_before): LayerNorm((768,), eps=1e-12, elementwise_affine=True)
          (drop_path): BeitDropPath(p=0.0181818176060915)
          (layernorm_after): LayerNorm((768,), eps=1e-12, elementwise_affine=True)
        )
        (3): BeitLayer(
          (attention): BeitAttention(
            (attention): BeitSelfAttention(
              (query): Linear(in_features=768, out_features=768, bias=True)
              (key): Linear(in_features=768, out_features=768, bias=False)
              (value): Linear(in_features=768, out_features=768, bias=True)
              (dropout): Dropout(p=0.0, inplace=False)
              (relative_position_bias): BeitRelativePositionBias()
            )
            (output): BeitSelfOutput(
              (dense): Linear(in_features=768, out_features=768, bias=True)
              (dropout): Dropout(p=0.0, inplace=False)
            )
          )
          (intermediate): BeitIntermediate(
            (dense): Linear(in_features=768, out_features=3072, bias=True)
            (intermediate_act_fn): GELUActivation()
          )
          (output): BeitOutput(
            (dense): Linear(in_features=3072, out_features=768, bias=True)
            (dropout): Dropout(p=0.0, inplace=False)
          )
          (layernorm_before): LayerNorm((768,), eps=1e-12, elementwise_affine=True)
          (drop_path): BeitDropPath(p=0.027272727340459824)
          (layernorm_after): LayerNorm((768,), eps=1e-12, elementwise_affine=True)
        )
        (4): BeitLayer(
          (attention): BeitAttention(
            (attention): BeitSelfAttention(
              (query): Linear(in_features=768, out_features=768, bias=True)
              (key): Linear(in_features=768, out_features=768, bias=False)
              (value): Linear(in_features=768, out_features=768, bias=True)
              (dropout): Dropout(p=0.0, inplace=False)
              (relative_position_bias): BeitRelativePositionBias()
            )
            (output): BeitSelfOutput(
              (dense): Linear(in_features=768, out_features=768, bias=True)
              (dropout): Dropout(p=0.0, inplace=False)
            )
          )
          (intermediate): BeitIntermediate(
            (dense): Linear(in_features=768, out_features=3072, bias=True)
            (intermediate_act_fn): GELUActivation()
          )
          (output): BeitOutput(
            (dense): Linear(in_features=3072, out_features=768, bias=True)
            (dropout): Dropout(p=0.0, inplace=False)
          )
          (layernorm_before): LayerNorm((768,), eps=1e-12, elementwise_affine=True)
          (drop_path): BeitDropPath(p=0.036363635212183)
          (layernorm_after): LayerNorm((768,), eps=1e-12, elementwise_affine=True)
        )
        (5): BeitLayer(
          (attention): BeitAttention(
            (attention): BeitSelfAttention(
              (query): Linear(in_features=768, out_features=768, bias=True)
              (key): Linear(in_features=768, out_features=768, bias=False)
              (value): Linear(in_features=768, out_features=768, bias=True)
              (dropout): Dropout(p=0.0, inplace=False)
              (relative_position_bias): BeitRelativePositionBias()
            )
            (output): BeitSelfOutput(
              (dense): Linear(in_features=768, out_features=768, bias=True)
              (dropout): Dropout(p=0.0, inplace=False)
            )
          )
          (intermediate): BeitIntermediate(
            (dense): Linear(in_features=768, out_features=3072, bias=True)
            (intermediate_act_fn): GELUActivation()
          )
          (output): BeitOutput(
            (dense): Linear(in_features=3072, out_features=768, bias=True)
            (dropout): Dropout(p=0.0, inplace=False)
          )
          (layernorm_before): LayerNorm((768,), eps=1e-12, elementwise_affine=True)
          (drop_path): BeitDropPath(p=0.045454543083906174)
          (layernorm_after): LayerNorm((768,), eps=1e-12, elementwise_affine=True)
        )
        (6): BeitLayer(
          (attention): BeitAttention(
            (attention): BeitSelfAttention(
              (query): Linear(in_features=768, out_features=768, bias=True)
              (key): Linear(in_features=768, out_features=768, bias=False)
              (value): Linear(in_features=768, out_features=768, bias=True)
              (dropout): Dropout(p=0.0, inplace=False)
              (relative_position_bias): BeitRelativePositionBias()
            )
            (output): BeitSelfOutput(
              (dense): Linear(in_features=768, out_features=768, bias=True)
              (dropout): Dropout(p=0.0, inplace=False)
            )
          )
          (intermediate): BeitIntermediate(
            (dense): Linear(in_features=768, out_features=3072, bias=True)
            (intermediate_act_fn): GELUActivation()
          )
          (output): BeitOutput(
            (dense): Linear(in_features=3072, out_features=768, bias=True)
            (dropout): Dropout(p=0.0, inplace=False)
          )
          (layernorm_before): LayerNorm((768,), eps=1e-12, elementwise_affine=True)
          (drop_path): BeitDropPath(p=0.054545458406209946)
          (layernorm_after): LayerNorm((768,), eps=1e-12, elementwise_affine=True)
        )
        (7): BeitLayer(
          (attention): BeitAttention(
            (attention): BeitSelfAttention(
              (query): Linear(in_features=768, out_features=768, bias=True)
              (key): Linear(in_features=768, out_features=768, bias=False)
              (value): Linear(in_features=768, out_features=768, bias=True)
              (dropout): Dropout(p=0.0, inplace=False)
              (relative_position_bias): BeitRelativePositionBias()
            )
            (output): BeitSelfOutput(
              (dense): Linear(in_features=768, out_features=768, bias=True)
              (dropout): Dropout(p=0.0, inplace=False)
            )
          )
          (intermediate): BeitIntermediate(
            (dense): Linear(in_features=768, out_features=3072, bias=True)
            (intermediate_act_fn): GELUActivation()
          )
          (output): BeitOutput(
            (dense): Linear(in_features=3072, out_features=768, bias=True)
            (dropout): Dropout(p=0.0, inplace=False)
          )
          (layernorm_before): LayerNorm((768,), eps=1e-12, elementwise_affine=True)
          (drop_path): BeitDropPath(p=0.06363636255264282)
          (layernorm_after): LayerNorm((768,), eps=1e-12, elementwise_affine=True)
        )
        (8): BeitLayer(
          (attention): BeitAttention(
            (attention): BeitSelfAttention(
              (query): Linear(in_features=768, out_features=768, bias=True)
              (key): Linear(in_features=768, out_features=768, bias=False)
              (value): Linear(in_features=768, out_features=768, bias=True)
              (dropout): Dropout(p=0.0, inplace=False)
              (relative_position_bias): BeitRelativePositionBias()
            )
            (output): BeitSelfOutput(
              (dense): Linear(in_features=768, out_features=768, bias=True)
              (dropout): Dropout(p=0.0, inplace=False)
            )
          )
          (intermediate): BeitIntermediate(
            (dense): Linear(in_features=768, out_features=3072, bias=True)
            (intermediate_act_fn): GELUActivation()
          )
          (output): BeitOutput(
            (dense): Linear(in_features=3072, out_features=768, bias=True)
            (dropout): Dropout(p=0.0, inplace=False)
          )
          (layernorm_before): LayerNorm((768,), eps=1e-12, elementwise_affine=True)
          (drop_path): BeitDropPath(p=0.0727272778749466)
          (layernorm_after): LayerNorm((768,), eps=1e-12, elementwise_affine=True)
        )
        (9): BeitLayer(
          (attention): BeitAttention(
            (attention): BeitSelfAttention(
              (query): Linear(in_features=768, out_features=768, bias=True)
              (key): Linear(in_features=768, out_features=768, bias=False)
              (value): Linear(in_features=768, out_features=768, bias=True)
              (dropout): Dropout(p=0.0, inplace=False)
              (relative_position_bias): BeitRelativePositionBias()
            )
            (output): BeitSelfOutput(
              (dense): Linear(in_features=768, out_features=768, bias=True)
              (dropout): Dropout(p=0.0, inplace=False)
            )
          )
          (intermediate): BeitIntermediate(
            (dense): Linear(in_features=768, out_features=3072, bias=True)
            (intermediate_act_fn): GELUActivation()
          )
          (output): BeitOutput(
            (dense): Linear(in_features=3072, out_features=768, bias=True)
            (dropout): Dropout(p=0.0, inplace=False)
          )
          (layernorm_before): LayerNorm((768,), eps=1e-12, elementwise_affine=True)
          (drop_path): BeitDropPath(p=0.08181818574666977)
          (layernorm_after): LayerNorm((768,), eps=1e-12, elementwise_affine=True)
        )
        (10): BeitLayer(
          (attention): BeitAttention(
            (attention): BeitSelfAttention(
              (query): Linear(in_features=768, out_features=768, bias=True)
              (key): Linear(in_features=768, out_features=768, bias=False)
              (value): Linear(in_features=768, out_features=768, bias=True)
              (dropout): Dropout(p=0.0, inplace=False)
              (relative_position_bias): BeitRelativePositionBias()
            )
            (output): BeitSelfOutput(
              (dense): Linear(in_features=768, out_features=768, bias=True)
              (dropout): Dropout(p=0.0, inplace=False)
            )
          )
          (intermediate): BeitIntermediate(
            (dense): Linear(in_features=768, out_features=3072, bias=True)
            (intermediate_act_fn): GELUActivation()
          )
          (output): BeitOutput(
            (dense): Linear(in_features=3072, out_features=768, bias=True)
            (dropout): Dropout(p=0.0, inplace=False)
          )
          (layernorm_before): LayerNorm((768,), eps=1e-12, elementwise_affine=True)
          (drop_path): BeitDropPath(p=0.09090909361839294)
          (layernorm_after): LayerNorm((768,), eps=1e-12, elementwise_affine=True)
        )
        (11): BeitLayer(
          (attention): BeitAttention(
            (attention): BeitSelfAttention(
              (query): Linear(in_features=768, out_features=768, bias=True)
              (key): Linear(in_features=768, out_features=768, bias=False)
              (value): Linear(in_features=768, out_features=768, bias=True)
              (dropout): Dropout(p=0.0, inplace=False)
              (relative_position_bias): BeitRelativePositionBias()
            )
            (output): BeitSelfOutput(
              (dense): Linear(in_features=768, out_features=768, bias=True)
              (dropout): Dropout(p=0.0, inplace=False)
            )
          )
          (intermediate): BeitIntermediate(
            (dense): Linear(in_features=768, out_features=3072, bias=True)
            (intermediate_act_fn): GELUActivation()
          )
          (output): BeitOutput(
            (dense): Linear(in_features=3072, out_features=768, bias=True)
            (dropout): Dropout(p=0.0, inplace=False)
          )
          (layernorm_before): LayerNorm((768,), eps=1e-12, elementwise_affine=True)
          (drop_path): BeitDropPath(p=0.10000000149011612)
          (layernorm_after): LayerNorm((768,), eps=1e-12, elementwise_affine=True)
        )
      )
    )
    (layernorm): Identity()
    (pooler): BeitPooler(
      (layernorm): LayerNorm((768,), eps=1e-12, elementwise_affine=True)
    )
  )
  (classifier): Linear(in_features=771, out_features=15, bias=True)
)

output_label_size: 15
num_epochs: 20
optimizer: Adam
learning_rate: 0.0003
scheduler: linear_schedule_with_warmup
warmup_steps: 2456
batch_size: 60
loss_function: BCEWithLogitsLoss
loss_weights: [2.1143040657043457, 9.236344337463379, 25.587554931640625, 19.509275436401367, 28.171754837036133, 8.857352256774902, 28.057798385620117, 29.60504913330078, 46.586238861083984, 6.0591654777526855, 15.46474552154541, 13.897273063659668, 22.3415470123291, 33.59606170654297, 20.420101165771484]
…
